CIFAR10/cifar_net.pth (torch, 251604 bytes, 10 tensors)

conv1.weight f4 [6, 3, 5, 5]
000000 71 fe 1f bd 66 c9 60 3e 54 a9 98 3e 6b 6f 9e 3e
       -0.039061014 0.21951827 0.29816687 0.3094438
000010 92 06 a3 bd ae 22 0c 3f 6a 3e 8a 3f 80 b8 80 3f
       -0.079602376 0.54740417 1.0800297 1.0056305
000020 f8 05 d7 3e b3 39 b3 3d 13 f2 9f bc cf 01 05 bd
       0.4199674 0.0875124 -0.01952461 -0.032472428
000030 33 b7 3c be 33 a3 34 be 21 02 2e 3d 62 38 80 be
       -0.1842926 -0.1764038 0.0424825 -0.25043017
000040 bd 5d 35 bf db c2 2b bf a9 82 76 be 2c d1 7f 3d
       -0.7084616 -0.670942 -0.2407328 0.06245534
000050 e8 29 c1 be 48 72 74 be 4b d5 39 be b8 ed 13 be
       -0.37727284 -0.2387172 -0.18147771 -0.14446151
000060 a1 e3 8c be b8 c8 fd bd 7b 2a 00 bd 54 ee 92 bd
       -0.27517417 -0.123918 -0.031290513 -0.07174364
000070 1d 57 a2 bc b3 d1 35 be 90 48 7b 3e 6c 2b 3a 3f
       -0.01981693 -0.17755775 0.24539399 0.72722507
000080 11 2d e6 3e 0e d2 47 3d 04 5f 19 be 78 84 0b be
       0.44956258 0.048784308 -0.14977652 -0.13624752
000090 fd 8f a4 be b3 37 26 bf 10 6c ec be 42 9c 88 bd
       -0.32141104 -0.6492874 -0.46176195 -0.06670429
0000a0 c8 78 8b be 8f 34 29 bf 77 df 27 bf 67 89 84 be
       -0.27240586 -0.66095823 -0.65575355 -0.2588608
0000b0 f4 16 88 3c 9c 5e a2 3c 2e 60 41 3e b3 e8 d6 3e
       0.016612507 0.019820504 0.18884346 0.4197441
0000c0 6d e7 80 3e ad 19 a1 bd 77 fd 9c be 47 f0 c9 be
       0.25176564 -0.078662254 -0.30662128 -0.3944113
0000d0 d3 f4 3c be 0a 0b fb bc f2 5c 47 bd 02 51 59 3e
       -0.18452768 -0.030644912 -0.048672624 0.21222308
0000e0 19 8b 06 3f 3b 21 a5 3e 3f 85 5c 3e 72 37 44 bd
       0.52555996 0.32251915 0.21535204 -0.04790444
0000f0 b2 2b 3d be 7a b2 54 be d6 41 e7 be 43 04 60 be
       -0.184737 -0.20771208 -0.45167416 -0.21876626
000100 6d 25 c4 bd de 0f 31 bd 8e 79 aa be 61 ec d4 be
       -0.09577451 -0.043228023 -0.33295864 -0.41586593
000110 80 98 43 3d 0c 7e 7c 3e 3e df 56 3e 3a 16 02 3f
       0.047752857 0.24657458 0.20983598 0.50815165
000120 3d 97 05 3f 62 59 d7 3e 5f 35 b2 3e e5 59 70 3d
       0.52183896 0.4206038 0.34806344 0.05867948
000130 a5 fd 46 be e7 3b a0 ba 0c f5 b9 bd 17 e7 37 be
       -0.19432695 -0.0012224884 -0.09079942 -0.17959248
000140 9a 36 e6 bc 0d 5e 5a bd ec 3c b1 bd ff c7 44 be
       -0.028102208 -0.05331235 -0.08654198 -0.19216917
000150 f3 0e 93 be b9 d7 0b be ea ea 3d be 37 f6 81 be
       -0.28722343 -0.1365651 -0.18546644 -0.2538316
000160 e2 8d ad be da ff 51 be 79 50 62 bc a6 9a be bd
       -0.3389731 -0.20507756 -0.0138131315 -0.093068406
000170 47 80 4f be b7 d2 8f be ce bf 1a be d2 76 8c be
       -0.20263778 -0.2809045 -0.1511223 -0.27434403
000180 ee 6f 93 be 2f 4f 6f be 77 9e c3 be c9 e8 a0 be
       -0.28796333 -0.2337005 -0.38206837 -0.314276
000190 0e 6d ff 3b 28 fc 1d bc 30 1b 7f bd 68 d2 10 be
       0.0077949828 -0.009642638 -0.062281787 -0.14142764
0001a0 1a 94 1d be 23 19 18 3d fc d8 5c 3d 60 0c a6 bb
       -0.15388528 0.037133347 0.05391787 -0.005067393
0001b0 6f 82 f2 3d 91 b2 9a 3d d5 25 61 3d f6 05 46 3d
       0.118412845 0.0755359 0.05496772 0.04834553
0001c0 61 1c fe 3d 7f 81 58 bd 6c 34 9b bd e1 32 01 3d
       0.124077566 -0.052857872 -0.07578358 0.031542663
0001d0 86 95 f3 3d c9 19 3d 3e 05 43 de 3d aa 96 70 bc
       0.11893754 0.18466868 0.10852627 -0.014684359
0001e0 5b d8 75 be 42 28 cd bd e6 08 91 bd b9 a9 39 be
       -0.24008314 -0.10017444 -0.07081775 -0.1813115
0001f0 2d dd f9 bd 82 6a 1e be 11 cc c9 bd e1 0d f6 3d
       -0.12200389 -0.15470317 -0.09853376 0.12014366
000200 ec 87 1f 3d 47 7e 9c 3d fb c5 d7 bd 7b b2 11 3e
       0.038947985 0.07641273 -0.10535809 0.14228241
000210 4e f4 66 3e ff 4b d5 3d ba f1 ef 3d 3d 50 24 3e
       0.22554132 0.10414886 0.117160276 0.16046233
000220 5a fd 3c 3e 5d 35 9d 3e 7a 0b 6f 3e 5f 95 26 3e
       0.18456021 0.30704775 0.23344222 0.16267918
000230 44 02 18 3e a3 fb 96 3e 5a 9d bd 3e 16 f5 a9 3e
       0.14844614 0.2948886 0.37034112 0.33194798
000240 a4 a8 f7 3d 19 2c 33 bb 61 2a 89 3e a6 97 f1 3d
       0.120927125 -0.0027339517 0.26790145 0.11796503
000250 4a 95 68 3e 3e dd c7 3d d6 1d 9e be 63 af d2 be
       0.227132 0.097589955 -0.30882138 -0.41149434
000260 17 6d 10 bf f6 7b 20 bf 3d f7 e2 be 76 20 af bd
       -0.5641646 -0.6268915 -0.44329253 -0.08551113
000270 17 64 ae bd 4e c0 13 bd 7c 4b 31 be 3b 9f 2d be
       -0.085151844 -0.036072068 -0.17313951 -0.16955273
000280 ed 81 bf 3e 0b ab 62 3e fa 36 a5 3e 9c 82 1e 3e
       0.37403813 0.2213556 0.32268506 0.15479511
000290 b2 9c 76 3e 43 5b 92 3e e1 21 64 3e 1c cb 73 3e
       0.24083212 0.28585252 0.22278549 0.23807949
0002a0 03 a4 97 3e 11 d0 3e 3e ed 15 ba 3e 99 00 ad 3e
       0.2961732 0.18634059 0.36344853 0.33789518
0002b0 36 a1 ca 3e 22 0c 8d 3e fb de e8 3e af 62 0b be
       0.3957612 0.2754832 0.4548262 -0.13611864
0002c0 2d 42 10 be 20 3c 9d be 46 9f 42 be f5 53 af bd
       -0.14087744 -0.30709934 -0.1900607 -0.085609354
0002d0 d5 c6 48 bd a9 c0 fd 3d 47 de c8 bd 24 24 28 be
       -0.049017746 0.12390263 -0.09808021 -0.16420037
0002e0 24 61 2d be 3c 16 cd bb 20 62 7b 3e f6 d0 8a 3e
       -0.16931587 -0.006258754 0.2454915 0.2711255
0002f0 52 90 09 3e ab 1c bd bd 0f 82 98 bd 9f 30 03 bd
       0.1343396 -0.092339836 -0.07446682 -0.03202879
000300 2a 97 a6 bd 2e 74 16 be 75 a4 3e 3c b0 bc 53 be
       -0.08134301 -0.14692757 0.011635889 -0.20677447
000310 d6 72 a0 be d4 7a 24 be ba 79 06 be 5c 42 3a be
       -0.31337613 -0.1606248 -0.13132372 -0.18189377
000320 70 bc 35 3e 41 85 7c bd 6b f3 cf bd d3 6d db 3c
       0.17747664 -0.06165052 -0.1015385 0.026785767
000330 d9 e0 04 3d 00 08 5a 3e 2b e3 60 3e 38 f1 c4 3d
       0.032440994 0.21292114 0.21961658 0.09616321
000340 f3 1b a0 3d a4 f9 e7 3d 3f c2 3b 3e 5a 95 8f 3e
       0.07817831 0.11326912 0.18335818 0.28043634
000350 7f f9 8a 3e 83 85 80 3e d9 cd 13 3e 5d 5e 41 be
       0.27143475 0.2510186 0.14433993 -0.18883653
000360 84 c2 d3 bd 25 17 98 bd 40 9c 80 3d c2 9f 58 3d
       -0.10339835 -0.074262895 0.06279802 0.052886732
000370 4f 4d d8 bd 94 00 c2 bd 88 36 1e be e8 c5 5e bd
       -0.105616204 -0.094727665 -0.1545049 -0.054387957
000380 e1 75 2c be bc d1 2a be 8c 5c 8b bd cf e1 9d 3d
       -0.16841842 -0.1668157 -0.06804761 0.07709085
000390 e2 a7 b2 3d 44 89 6b 3d 3f 38 64 be 3e e1 12 be
       0.08723427 0.057503954 -0.22287081 -0.14343736
0003a0 ba d3 2b bd 07 06 c3 3c 1a 56 88 3d e8 38 1a be
       -0.041949965 0.023806585 0.066570476 -0.1506077
0003b0 00 8d 75 be 12 8c c6 bd 84 ba 14 be 20 d6 22 3c
       -0.23979568 -0.09694685 -0.14524275 0.009938747
0003c0 51 a7 53 be b3 63 df bd 64 ee e7 bc 00 02 71 3c
       -0.20669295 -0.10907688 -0.028311916 0.0147099495
0003d0 fb 1f e9 3c d2 0a d4 3d c7 25 82 3d 89 10 ea 3d
       0.028457632 0.10353626 0.06354862 0.11428935
0003e0 2a 46 93 3e 7a a0 fe 3d 64 7e c8 3b c8 d2 c6 3d
       0.28764468 0.12432952 0.0061185826 0.09708172
0003f0 79 8e 09 3e 6e ff 72 bd 52 95 28 bd 4b c2 e9 bd
       0.13433255 -0.059325628 -0.041158028 -0.114140116

conv1.bias f4 [6]
000000 56 3f 2c bf 11 f0 93 3e ae e3 06 bf c7 0d a0 3e
       -0.6728414 0.28894094 -0.5269116 0.3126051
000010 c4 56 92 be 64 2c 2a be
       -0.28581822 -0.16618496

conv2.weight f4 [16, 6, 5, 5]
000000 18 c3 01 bd 8a a3 97 3c 66 50 ce 3d 02 d5 58 3d
       -0.031680197 0.018510599 0.100739285 0.052937515
000010 11 e4 8c 3c b6 33 29 be 34 03 cc bc e3 3e e9 bd
       0.017198594 -0.16523632 -0.024903871 -0.11388948
000020 1c 8e 34 3d f9 98 30 3d 2a e3 f9 bd 3c 27 7d 3d
       0.04408084 0.043114636 -0.12201531 0.061804995
000030 c1 30 f6 bd 54 95 df 3d 51 42 51 3d f4 f4 b3 be
       -0.12021018 0.10917154 0.051088635 -0.35147822
000040 d2 5f 83 bd 6b cc b3 3e 6f 99 8f 3d 36 7f 1e bc
       -0.06414761 0.35116896 0.07011687 -0.009673884
000050 b1 4b 57 be 8c 94 7d be 46 79 c8 bc 5d ad be bd
       -0.21024968 -0.24763697 -0.02447189 -0.0931041
000060 c4 01 fe bd 50 e3 86 3e 5e fe 31 3e f8 f6 20 3e
       -0.124026805 0.263453 0.1738219 0.15719211
000070 15 5e b9 3d 17 d5 1d ba bc 64 4c 3e d0 00 ee 3d
       0.09051148 -0.00060208276 0.19960302 0.11621249
000080 22 6d aa 3d 4a a1 9c 3d bb 39 30 bd 75 a1 4d 3d
       0.08321597 0.07647951 -0.043023806 0.050202806
000090 cc 90 b4 bc 14 2d a5 bd c6 36 32 be 60 9a 14 be
       -0.0220417 -0.080652386 -0.17403707 -0.14512014
0000a0 ae d8 b1 3d 6d 16 c5 3d 3a a9 90 bd f8 70 c1 bd
       0.086839065 0.09623418 -0.070635274 -0.09445375
0000b0 80 38 80 be 8d 98 b3 bc f5 bb 24 be 04 fd 53 be
       -0.25043106 -0.021923328 -0.16087325 -0.20701987
0000c0 2c bf 78 be e8 d9 dd be c4 21 8b bd b3 8e 95 bd
       -0.24291676 -0.43330312 -0.0679355 -0.07302608
0000d0 da 83 53 bd 97 4e d4 bd fe d6 8c bc d9 12 2b bc
       -0.051639415 -0.10366552 -0.01719236 -0.010441505
0000e0 4c d3 26 bd 02 96 87 bd cd f8 84 bc 50 5a 81 3b
       -0.040728852 -0.066204086 -0.016231919 0.0039475337
0000f0 e9 e1 ed 3a b2 31 c2 bd fd e4 32 3c 85 94 24 bd
       0.0018148992 -0.09482135 0.010918853 -0.0401807
000100 0c 4d 01 3d 54 cb 8e 3d 2f 5a 6f bd 43 97 48 3e
       0.03156762 0.069723755 -0.058435615 0.19588952
000110 f2 cd df 3d 43 4b ea bc 19 41 02 3e 5b 60 60 3e
       0.10927953 -0.02860034 0.12720145 0.21911757
000120 71 2d 97 3d 56 33 38 bc 61 19 2d bd 92 44 3b bd
       0.07381714 -0.011242708 -0.04226053 -0.04571969
000130 f9 b9 2b be 77 5b 84 bd 36 0f 21 be fc 35 10 be
       -0.16770162 -0.06462758 -0.15728459 -0.14083093
000140 6c 10 b9 bd c7 81 0e be 2f 52 d6 bd 38 a6 9d bd
       -0.09036335 -0.13916694 -0.10464894 -0.07697719
000150 a9 d9 94 be 7c c0 85 bd f8 da 2b be a3 08 81 bd
       -0.29072312 -0.06530854 -0.16782749 -0.063004754
000160 52 f2 3e be cd 43 ab be ff e1 1e bd a8 87 27 be
       -0.18647125 -0.33450165 -0.038789745 -0.16360343
000170 21 0d 25 bd 8e 2c 0d be 42 d9 2b be 67 79 11 bd
       -0.040295724 -0.13786528 -0.16782096 -0.03551617
000180 35 0f 6a bd 46 0f dc bc f1 49 f7 bd 23 b6 86 be
       -0.05714341 -0.026862752 -0.1207465 -0.26310834
000190 e4 d2 11 3c 32 3c 88 3d c5 74 65 bd 5f fd 88 bd
       0.008900378 0.06652106 -0.056019563 -0.06688952
0001a0 0c 57 98 3e bf 69 33 3e 43 2d 8e be aa 37 d9 3e
       0.29753911 0.17520808 -0.27768907 0.4242528
0001b0 e2 60 58 be 94 0f bf 3c 7a d0 c5 3e a6 b1 fd bd
       -0.21130708 0.023322858 0.38635617 -0.123873994
0001c0 e4 a9 16 3d dc da 4c 3d ba 81 51 be 4f de 15 3d
       0.036783114 0.050013408 -0.20459643 0.036588963
0001d0 d8 f9 a2 3d 20 31 c7 be 93 11 02 bc d8 5c 9f be
       0.0795781 -0.38904667 -0.00793876 -0.31125522
0001e0 82 66 a4 be 97 40 e7 3c b7 cb 8d be 35 09 c0 be
       -0.32109457 0.028229041 -0.27694485 -0.37507024
0001f0 eb d9 b1 be 35 ec 29 3e 4f 23 ab bd 9e 6f cd 3c
       -0.3473657 0.16594012 -0.08356344 0.025077637
000200 7c 1b eb bd b0 54 69 bd 26 fc 89 3e 10 07 d3 bd
       -0.114798516 -0.05696553 0.26950186 -0.103040814
000210 d5 10 03 bd 7d e7 32 3e c1 a5 12 be ce e1 07 3e
       -0.031998474 0.17471118 -0.14321043 0.13269731
000220 53 ed 5c 3e f5 c7 98 be b5 df 46 3d 4b 8c 08 3e
       0.21574907 -0.29840055 0.048553187 0.13334768
000230 b6 ab 8b be 56 a5 15 3e 5f 42 f9 3d 6d 54 5b be
       -0.27279443 0.14613852 0.121708624 -0.21418925
000240 ad 53 ba 3d 36 fc 88 bd d0 97 6a bd 11 b5 0a 3e
       0.09097991 -0.066887304 -0.057273686 0.13545634
000250 1b 18 22 bd 45 41 e5 bd a1 c2 82 be ff e0 40 be
       -0.03957377 -0.1119409 -0.25539115 -0.18835829
000260 91 86 dc 3d b1 18 4d 3e 94 d1 f4 bc 6e 8c 79 bd
       0.10767854 0.2002895 -0.02988509 -0.06092494
000270 d4 a4 d2 bd f9 85 7a be e4 82 61 3e f0 b6 51 3e
       -0.10285345 -0.24465169 0.22022587 0.20479941
000280 db 33 ca bd 36 7f 85 bd ff 14 19 be e1 22 1a 3d
       -0.09873172 -0.06518404 -0.14949416 0.03763092
000290 7b db 57 3e 33 d2 92 be 4b 40 60 bd 79 13 ba 3b
       0.21079819 -0.28675994 -0.054748815 0.005678591
0002a0 75 f5 f5 3c 18 a2 b3 b8 08 0b 3b be 16 4c 1f be
       0.03002427 -8.5655774e-05 -0.18265927 -0.15556368
0002b0 a7 9e 12 be c0 3f 2a bd 5b 2b 96 3d 35 c9 8a 3d
       -0.14318334 -0.041564703 0.07332488 0.067766584
0002c0 28 19 53 bd a5 7a 37 3d 63 22 e4 3d 21 9f 64 3d
       -0.051537663 0.044794697 0.11139371 0.05581582
0002d0 e3 d8 c9 bc e0 fa 13 bd 23 4f 47 3d 1e b5 38 bd
       -0.024639552 -0.036127925 0.048659455 -0.0450946
0002e0 ed cd b6 3c 9b 3b 08 bd 95 b2 45 bd 30 15 23 3d
       0.02231499 -0.03325997 -0.048266012 0.039815128
0002f0 3e d4 d9 bd c7 77 0b be ed 23 ba bc 5d 8a 75 bd
       -0.10636185 -0.1361991 -0.022722209 -0.059946407
000300 6d e6 7c 3c 40 7c 1b 3d 87 06 2e be bb d5 5f 3e
       0.015435797 0.03796029 -0.16994677 0.21858875
000310 c9 d5 25 3d 33 23 85 3c a1 fd 3f bd f4 57 04 be
       0.040487085 0.016252136 -0.04687274 -0.12924176
000320 62 85 c7 3d 22 c0 d9 3c ab 56 b4 bd 3d 3c b0 3d
       0.09742238 0.026580874 -0.08805593 0.086052395
000330 ea 6f 8d 3e 09 34 53 bd 64 b0 73 3e ac 37 e6 3d
       0.27624446 -0.051563296 0.23797756 0.11241087
000340 8b 14 50 bd bd b8 47 bd 85 94 f7 bd d1 85 6f 3d
       -0.05080084 -0.048760165 -0.12088875 0.058477227
000350 8f 48 c1 3e 11 ae 7e 3e 56 6c 91 be b7 97 7b 3d
       0.3775067 0.24871089 -0.28402966 0.061423983
000360 4c 02 0c be 3c 30 f8 3b 87 d7 15 3e 98 ea 94 3d
       -0.13672751 0.0075741094 0.14632998 0.07271308
000370 b1 a3 02 bc 25 49 49 be 33 36 0f be d2 34 6d bd
       -0.007973597 -0.19656809 -0.13985519 -0.0579117
000380 58 b9 b5 3d 28 94 39 3e 39 22 f5 bc d7 48 a7 3d
       0.08873242 0.18122923 -0.029923545 0.0816819
000390 87 9a 15 3e 3e 4c ee bc 3e 0d 46 3e 1a d1 c2 bd
       0.14609729 -0.02908909 0.19340989 -0.09512539
0003a0 fd 20 2a be 8f c0 0b bd bf 3f da 3d 43 ec 70 3e
       -0.16614147 -0.034119185 0.1065669 0.23527627
0003b0 94 fe a1 3d 70 2b 22 be 35 36 fc bd db 8b 3d 3d
       0.07909885 -0.15836883 -0.12315027 0.046275955
0003c0 34 7c 8f 3e 2c f1 54 3e db c0 e0 3d 80 ed 66 3d
       0.28024447 0.20795125 0.10974284 0.05637884
0003d0 45 80 6c bd 8b 6b d1 3e 5c 01 6b 3e b8 25 62 3d
       -0.057739515 0.4090236 0.22949737 0.055211753
0003e0 e9 d3 a7 3d 66 ea c1 bd 4f 0b 80 be 3b cb 52 bd
       0.081947155 -0.09468536 -0.25008628 -0.051463347
0003f0 df 1d 9a 3d 37 11 1d be 21 67 6f bd 61 38 da bd
       0.07525229 -0.15338598 -0.05844796 -0.10655285

conv2.bias f4 [16]
000000 c3 80 92 3f 0a 29 a2 be 2e f5 22 3e 0b a3 6c 3f
       1.1445545 -0.31671935 0.15913841 0.92436284
000010 bc 24 a4 3e ec ac b6 bf 57 8e 84 be 3d 8c 07 3f
       0.32059276 -1.4271522 -0.25889847 0.5294836
000020 24 7b 7d be f7 43 81 3e c5 ea 35 3e f4 56 52 bf
       -0.24754006 0.25247166 0.17765339 -0.8216393
000030 65 94 1a 3f 64 9c cf be 7c 00 5a 3f 69 3f 9d 3e
       0.6038268 -0.40549004 0.8515699 0.3071244

fc1.weight f4 [120, 400]
000000 a4 4c 49 bd df 61 81 bd 94 f1 6a bc 1a 8e 91 3d
       -0.049145356 -0.063174956 -0.014339823 0.07107182
000010 90 a6 9b 3d 77 91 28 3d f6 12 39 3c a5 5a 73 3d
       0.07600129 0.04115435 0.011296025 0.059412617
000020 53 b5 05 3e a3 5d 9d 3d f7 2a 8a 3c fe 0b 3b 3d
       0.13057451 0.076838754 0.01686619 0.045665734
000030 ad 81 9d 3d e6 a5 1b 3c 46 31 8d 3d 24 99 ab bd
       0.07690749 0.0095000025 0.06894164 -0.08378819
000040 ce b9 c7 bb 87 64 03 3d 7f c5 fb 3c c9 87 4f 3d
       -0.0060951477 0.032078292 0.030733822 0.050666604
000050 a6 b3 97 bb d2 a0 85 bc aa e4 5a 3d dc f0 15 bd
       -0.00462957 -0.016312037 0.053440727 -0.036606655
000060 a3 6a 9f bc 00 97 95 bd 7c 81 67 3d 41 c8 15 3e
       -0.019460028 -0.073041916 0.05651997 0.14627172
000070 9c cf b4 3d ed 44 18 3e 18 05 29 bc 4d 45 da 3d
       0.08828661 0.14870043 -0.010316156 0.10657749
000080 cd 54 35 3e a3 0b a7 3d 6a c3 d1 3a da b7 a0 bc
       0.1770813 0.081565164 0.0016003672 -0.019618917
000090 85 29 c2 3c e4 de 01 ba 5b 4c 47 bc 7e 27 93 bc
       0.023701439 -0.0004954173 -0.012164201 -0.017963167
0000a0 eb fe 9f bd ae be f1 b9 86 01 65 3c 9b 22 2a bd
       -0.078122936 -0.0004610917 0.013977414 -0.04153691
0000b0 74 74 95 b9 55 f0 c8 bc 33 cf f4 bc bb 3c d8 3a
       -0.0002850626 -0.024528662 -0.029883957 0.0016497591
0000c0 a4 61 38 bd 39 30 f2 bd ba 90 53 bd 16 a2 d0 bc
       -0.045014992 -0.11825604 -0.051651694 -0.025467914
0000d0 ee 01 95 bd f7 49 8a 3c 2d 54 89 bb 40 d3 64 3d
       -0.07275759 0.016880972 -0.0041909427 0.055865526
0000e0 a2 ae 86 bc 20 51 3c bd 69 9c dc 3d f8 02 05 3c
       -0.016440693 -0.045975804 0.1077202 0.008118384
0000f0 85 ec f4 bc 84 05 36 3c 26 54 01 3d 74 dc 9b 3c
       -0.029897938 0.011109713 0.03157439 0.019026019
000100 80 26 c8 3b 16 1f 65 3d ab d5 82 3c a7 28 67 bc
       0.006108105 0.05593785 0.015971025 -0.014108813
000110 d7 62 61 3c 12 4f ad 3d 78 86 05 3c 53 55 5d bd
       0.013756475 0.08462347 0.008149736 -0.05403645
000120 b5 3b c0 bc dc 66 91 3d c5 38 0b 3e ab 60 16 bd
       -0.02346597 0.07099697 0.13595875 -0.036713284
000130 fd a9 ab 3d 33 b0 e2 3c 3b 84 b1 3d c5 d7 d7 3d
       0.08382032 0.027671909 0.08667799 0.10539202
000140 1e f3 4c bc 14 23 f1 3c 3d eb 19 3b ec dd 8c bc
       -0.0125091355 0.029435672 0.002348616 -0.017195664
000150 6c 8f 4b 3d 98 91 40 3d 18 80 92 bd e2 36 91 bd
       0.049697325 0.04701385 -0.07153338 -0.07090546
000160 9d df 06 bd d9 18 3d bd b0 ff 43 3d de 11 81 bd
       -0.032928098 -0.046166275 0.047851264 -0.06302236
000170 fa ab 7e bd e3 c0 65 3a a9 8f 17 bd 07 ca 67 3d
       -0.06217573 0.0008764399 -0.03700224 0.056589153
000180 21 99 b2 3c 99 ca 93 bd 62 78 8e bd 54 76 1f bd
       0.021801533 -0.07216377 -0.06956555 -0.038931206
000190 0b bb ee 3b bb ea 92 bd 95 ad 68 bd 81 66 d8 bc
       0.007285481 -0.071736775 -0.056806166 -0.026416065
0001a0 cc a5 77 bd a2 94 a9 bd 91 55 38 bd 19 92 ab bd
       -0.06046085 -0.082803026 -0.045003477 -0.08377475
0001b0 4a ee fb bc ef 7d 3e bc 28 e3 9e bd e1 29 a2 bc
       -0.030753274 -0.011626705 -0.0775817 -0.01979536
0001c0 61 dd 77 bd b4 4b 1f bd 49 fb 95 bb 68 7c 21 bd
       -0.060513858 -0.038890556 -0.0045770747 -0.039425284
0001d0 60 f8 cb bc 63 e2 ad 3c 3a c6 1f 3c 41 21 d7 3c
       -0.024898708 0.021226114 0.009751851 0.026260974
0001e0 81 87 1c bd 9c fa b4 bc 6d 7a 9f bb 41 4b 2c bc
       -0.038215164 -0.022092156 -0.004866889 -0.010515989
0001f0 33 ac 02 3c d7 28 8e bc d7 46 25 3e d7 5c 55 bd
       0.007975626 -0.017353458 0.16140305 -0.052090492
000200 c2 5f 0f bd ba ee 35 bd 6d 76 92 bd 64 15 9a bd
       -0.03500343 -0.04441712 -0.07151494 -0.07523611
000210 4b bb 34 3d 86 95 2a 3d 4a 2b 6e 3c ac d6 84 bc
       0.04412393 0.041646503 0.014536688 -0.016215645
000220 f7 b9 95 3c a0 6b fb 3c 41 07 20 bb 71 c3 b7 3b
       0.018277152 0.030690968 -0.0024418386 0.005608015
000230 cd 5f a0 bd d2 4c 92 bd ad 13 d9 bd 42 d6 42 3d
       -0.078307725 -0.071435586 -0.10599456 0.047567613
000240 e1 be 8b bc 4c 4c 93 bd a2 29 c5 bd e1 68 96 3b
       -0.017058792 -0.07192287 -0.096270815 0.0045901393
000250 6c ad 0c 3d dd 6b 22 be 0e e5 dd bc 62 57 b9 bc
       0.034345075 -0.15861459 -0.02708676 -0.022624675
000260 2d 3a b5 bc ab 31 64 bd ad 73 bf 3c 00 49 de bc
       -0.022122467 -0.05571143 0.023370588 -0.027134418
000270 91 de 9e 3c 7f 7e 2c 3e a4 5f 05 3d 2e 9a 86 3c
       0.019393237 0.1684513 0.032561913 0.01643094
000280 4d a8 27 bd cc fe 48 bd 83 6c 42 3d 4b e3 f8 3d
       -0.04093199 -0.04907112 0.047466766 0.12152728
000290 b1 4f b8 3d d5 fa bb bd 6b d2 a8 bd c4 a9 af 3d
       0.08999575 -0.09178702 -0.08243259 0.08577302
0002a0 b1 3b ef 3d 90 ab 4a 3d c9 a4 a1 bd 07 9f 5a bd
       0.11681307 0.04948002 -0.078927584 -0.053374317
0002b0 f3 1a 91 3c 9d f9 0e 3d bf 05 b9 3d 1b b3 e6 3d
       0.017713046 0.03490602 0.09034299 0.112646304
0002c0 20 a8 2c 3e 8d 2d 95 3d f8 87 e8 3c 4f 97 89 bd
       0.1686101 0.07284079 0.028385147 -0.06718313
0002d0 55 16 4f 3d 57 dc ea 3c dc 2c 6d 3c 4a 81 35 3c
       0.050558407 0.02866952 0.014476027 0.011078188
0002e0 30 95 32 3d 81 57 db 3d 91 9c 8a 3d 6d 65 a2 bd
       0.043599308 0.107100494 0.06768144 -0.07929502
0002f0 d8 66 ed bd 9a b5 9f bc 19 2b bd bc be 8a 5d 3c
       -0.115918815 -0.019495774 -0.02309184 0.013521848
000300 cc 5a 9c bd f3 14 e5 bc 09 59 85 bc f2 81 bf 3c
       -0.07634506 -0.02796409 -0.016277807 0.023377392
000310 ba 84 47 bd 17 e6 4e bd bf 43 9a bc 34 7c f0 bc
       -0.048710562 -0.0505124 -0.018831132 -0.0293561
000320 01 8b d7 3d 99 8e 04 3e 48 1c 60 3d 75 88 07 3d
       0.1052456 0.12945022 0.05471447 0.03308912
000330 3b 36 cd bd f1 d2 93 bb 38 4d 21 3d d0 8d 8d 3d
       -0.10020109 -0.00451123 0.039380282 0.06911814
000340 36 01 fc 3d b0 93 2a 3b 1f f0 b7 3d e4 d0 38 3c
       0.123049185 0.002602797 0.08981346 0.011280272
000350 00 4f 99 3c b1 b6 6a 3d 82 54 54 bd 8f fe 9b 3d
       0.018714428 0.057303134 -0.051838405 0.076169126
000360 cf 21 11 3d 0b f1 fd 3c c5 e8 73 3d 2d e5 a7 bd
       0.035432633 0.030998727 0.05954816 -0.08198009
000370 66 ea 1c 3d 3b 8e 15 bc ee ee 74 bc f0 08 14 3d
       0.038309477 -0.009128149 -0.014949543 0.036141336
000380 8d 3d 87 3c 49 f2 36 bd 1b 36 be b9 de ab 42 bd
       0.016508842 -0.044664655 -0.00036279936 -0.047527187
000390 48 99 25 bc e3 bf 61 3d 3c f6 ce 3d 4e 19 14 bd
       -0.010107346 0.055114638 0.10105559 -0.036156945
0003a0 0c 58 c3 3c 4a 79 76 bd af 31 99 bb eb 23 4e 3d
       0.023845695 -0.060174264 -0.004675112 0.050327223
0003b0 17 19 66 3d f0 8d 92 bd d7 67 79 bc 1a 48 26 3d
       0.05617627 -0.07155979 -0.015222511 0.040596105
0003c0 54 b7 28 3d 1f 5d dd 3c 92 3f cb bd c1 2c 62 3d
       0.04119046 0.027021943 -0.099242344 0.055218462
0003d0 a3 86 26 3e e3 9e 8c 3d 5b 7f b5 bd 73 9d 11 be
       0.16262297 0.06866243 -0.08862182 -0.14220218
0003e0 47 d2 ec bc ab 83 fa 3c fd 88 45 bc eb cb 80 bd
       -0.028908862 0.030580362 -0.012056586 -0.06288894
0003f0 ff 15 f1 bd b5 06 08 be c7 2e a3 3c c1 c8 04 be
       -0.117717735 -0.13283809 0.019919766 -0.12967207

fc1.bias f4 [120]
000000 5f 7a 19 3c 69 0b ad bd 76 31 2c bd f5 6c 34 3e
       0.009367554 -0.08449442 -0.042039357 0.17619689
000010 ec 13 42 bd 85 41 89 3d a1 09 ea bc 66 1c c3 3c
       -0.04738228 0.0670195 -0.028569045 0.023817252
000020 b6 9f 15 3d 83 9b 47 3e e0 e1 5c 3d c5 18 0a be
       0.036529265 0.19492917 0.05392635 -0.13486011
000030 a5 bb 4c 3d 9e 5f a8 bc e5 15 f0 3c 33 0f 47 3d
       0.04998364 -0.020553406 0.029307315 0.04859848
000040 fa 2b 6d 3e b6 58 4f 3e 57 b6 e5 3c e7 b5 b4 bb
       0.23161307 0.20248684 0.028041048 -0.0055148485
000050 31 37 f8 bc 57 f1 0e 3d 10 6c 09 be 18 26 0d bd
       -0.030299755 0.03489813 -0.13420129 -0.034460157
000060 b9 e6 8e 3e df ad 44 be f9 f9 fd bc d5 da 36 be
       0.27910402 -0.19206952 -0.031002985 -0.17856915
000070 1c f7 8d 3d 2f 9b 20 3c f5 ad 43 ba a3 09 82 3d
       0.06931898 0.009802624 -0.0007464581 0.06349494
000080 41 43 5a 3c ee da 67 bc 91 e8 2e 3d 97 18 86 be
       0.013321699 -0.014151318 0.04270226 -0.26190636
000090 17 0e fe 3d 86 98 52 3b 58 0f bd bd 5f 66 c9 3b
       0.12405031 0.0032134368 -0.09231442 0.006146237
0000a0 26 28 e9 bb 90 83 fb bb 62 19 3c 3d d1 25 1b bd
       -0.007115382 -0.0076755956 0.045922644 -0.03787786
0000b0 81 4a 0f bc 3a 1c 78 3d 59 d6 fa bd 3d 91 5d 3d
       -0.00874579 0.060573794 -0.12247915 0.05409359
0000c0 25 8c 39 bd e1 cc 17 bd 6f 93 91 bd bb 7a 88 3c
       -0.045299668 -0.037060622 -0.07108199 0.016660085
0000d0 01 fb 13 3d 06 7a a0 bc b8 3e a2 bd 17 71 d9 3d
       0.036128048 -0.019589435 -0.07922119 0.10617273
0000e0 62 f8 1c 3d e2 1c 4c 3e 29 b5 ce ba 86 c5 2d 3e
       0.038322814 0.19932893 -0.0015770543 0.1696988
0000f0 19 e6 9e 3c 88 da fe bc e0 4d cd 3c 83 1a f7 bc
       0.019396828 -0.031110063 0.025061548 -0.030164009
000100 27 52 b3 3d 15 f4 11 3c 24 ba cf 39 dd 9c 7f 3e
       0.08755904 0.008908291 0.00039620802 0.24962182
000110 f0 5f cf 3d 13 2d 8b 3c 50 ca eb bd 7b d7 31 3e
       0.101257205 0.016989266 -0.115131974 0.17367356
000120 40 fe d0 bd ad 94 5c bc 02 4b 33 3d 62 af 36 3e
       -0.10204744 -0.013463181 0.043772705 0.1784034
000130 28 f9 00 3e 94 1f 04 bd 78 f3 da 3c c2 ee 16 bd
       0.12595046 -0.032256678 0.026727423 -0.03684879
000140 1a 00 f6 bb 2e a3 06 3e 73 59 37 3e e0 6f a5 bb
       -0.0075073363 0.13148186 0.17905216 -0.005048737
000150 4d 9a 9f 3d 14 c4 e7 bc 45 33 89 bc 38 63 2f 3e
       0.077931024 -0.02829174 -0.01674808 0.17127693
000160 90 a7 f6 bc 63 5d 2d 3e 36 db c7 3d 7d 89 0d 3e
       -0.030109197 0.16930155 0.09758608 0.13821979
000170 93 4e 0b be 98 96 14 3e 17 57 57 3c a8 18 47 3d
       -0.13604192 0.14510572 0.013143322 0.0486075
000180 38 d9 11 3e 4f 65 83 bd e5 5b ab 3e de 13 72 3d
       0.14243019 -0.064158075 0.33468547 0.059100978
000190 8d 7b bd 3c a2 6b ea 3d f7 92 03 3d 80 c6 00 bd
       0.023130203 0.114463106 0.03212258 -0.031439304
0001a0 7d b3 f2 3b 53 2e b2 3d 8c c7 87 bd ca de 33 3e
       0.0074066506 0.08700242 -0.066298574 0.17565456
0001b0 d7 74 b9 3c 0d 9c 32 3e b9 98 a6 3c cc 48 8f 3c
       0.022638721 0.17442341 0.020336496 0.017490767
0001c0 c1 a5 d8 3c 8a 18 f7 bd 8c ed 5c bc c4 e1 8d 3b
       0.026446225 -0.12065227 -0.01348437 0.004329892
0001d0 a7 4e 70 bc 01 f8 a6 3d 33 fb 60 3b 85 89 95 3d
       -0.01466719 0.08152772 0.0034329414 0.073016204

fc2.weight f4 [84, 120]
000000 3c 45 54 bd a9 73 9f bd 51 cb 1b bd bf 50 6b 3c
       -0.05182384 -0.07785732 -0.038035695 0.014362513
000010 af df 58 bc 49 8e 8a 3d a4 f0 17 bc 00 a5 cb 3c
       -0.013236924 0.0676542 -0.009273682 0.024858952
000020 a8 c0 af bd 63 be 32 bc d5 f3 42 bb 35 cb c1 bd
       -0.08581668 -0.01090965 -0.0029747386 -0.09462587
000030 be ab 09 3d cc e2 a9 3d ce 64 f2 3c da 5c 71 bd
       0.03361105 0.08295211 0.029589083 -0.05892644
000040 b2 6c b3 bd 52 2e 5d bd 4a c2 4a bd a7 f8 84 bd
       -0.08760966 -0.053999253 -0.049501695 -0.06492739
000050 64 fd a0 3d 0a ee 05 3d 60 72 02 3d 80 0a c4 bc
       0.078608304 0.032697715 0.031847358 -0.023930788
000060 a9 d4 2b 3d d5 5a 00 bc d8 07 4b bd 69 66 7e bd
       0.041950855 -0.007834156 -0.049568027 -0.062109385
000070 d6 54 aa 3d 49 4e a5 3d c2 59 b8 bd 6d 4e 75 bd
       0.083169624 0.08071572 -0.09001495 -0.059889246
000080 10 44 3b bc 51 b7 36 3d 8d 62 dd 3a 00 61 45 bd
       -0.011429802 0.044608418 0.0016890332 -0.04818821
000090 13 09 db bc c3 1e 59 bd 44 d2 c8 bd 8c 50 22 bd
       -0.026737725 -0.053007852 -0.0980573 -0.039627597
0000a0 02 0e 53 3d bb 4a 49 3d c9 29 3c 3c ca bd a3 bd
       0.05152703 0.049143534 0.011484572 -0.07995184
0000b0 00 46 18 ba de f2 2e 3c 74 25 a7 bc f7 cf 64 bd
       -0.00058087707 0.010678021 -0.020403601 -0.055862393
0000c0 17 cf fd bc 33 de 91 bd 7d 43 a4 3d 36 63 89 bd
       -0.030982537 -0.07122459 0.08020685 -0.06708376
0000d0 0d ba e9 3c 54 a5 ac 3d 1d 15 aa bd 32 be 4f bd
       0.028531099 0.08429971 -0.08304808 -0.050718494
0000e0 f5 18 06 bd 1c 29 55 bd b5 b1 1b 3d b9 fa 74 3d
       -0.032738645 -0.052041158 0.03801127 0.05980942
0000f0 cd 1e 73 bd 9b 2e 9c 3d 38 4f 19 bc f8 3b 5e 3c
       -0.059355546 0.07626077 -0.009357266 0.013564102
000100 8c 69 b4 3d ed cd 30 bd a3 d4 71 bb b3 5b 92 3d
       0.08809194 -0.043165136 -0.0036900423 0.071463965
000110 cd d2 5a 3c 32 b8 98 bd 10 2a de 3d 08 9a ab bb
       0.013355923 -0.074570075 0.108478665 -0.005236868
000120 12 e0 56 bd a9 f0 e6 3c ab cd 2d 3d 8c 56 7b bd
       -0.052459784 0.028190928 0.04243247 -0.061361834
000130 93 ff 5b bc 5e 10 77 bd 27 ee bf 3d 15 57 c9 bc
       -0.013427633 -0.060318343 0.09371596 -0.024577657
000140 71 24 9f 3d 34 40 e2 3c d0 a8 2c 3d 51 1e c3 bd
       0.077706225 0.027618505 0.04215318 -0.09527267
000150 84 a1 92 3c 2e 87 8e bd 43 34 3c bc 59 90 33 bd
       0.017899282 -0.06959377 -0.01148707 -0.043838833
000160 63 4b b6 3d 44 9e bb 3c 54 1e c4 3d f0 bc 31 ba
       0.089010976 0.022902615 0.09576097 -0.0006780168
000170 98 59 2a bd 42 7e 67 3d 0b df 82 3d df df b7 bc
       -0.04158935 0.056516893 0.06390198 -0.022445617
000180 aa ab 68 bd 48 eb 15 bd b3 1e 89 bd f5 c3 30 3d
       -0.056804337 -0.036601335 -0.066953085 0.04315563
000190 74 d6 84 3c 7d 20 b3 bd 7c 31 09 bc 3b 20 b0 3d
       0.01621554 -0.08746431 -0.008373614 0.085998975
0001a0 5d 45 96 bb b6 23 85 3d 70 f9 29 bc 08 c0 90 bd
       -0.0045859055 0.06500952 -0.010374412 -0.07067877
0001b0 89 d2 f2 bc 96 4b fe bc 8a 36 ec ba f7 a6 82 3d
       -0.029641407 -0.031041902 -0.0018021625 0.06379502
0001c0 10 8a 34 bd 3b 01 94 3d 44 ba 66 bd 80 c7 f0 bc
       -0.04407698 0.07226797 -0.05632998 -0.029392004
0001d0 1e 54 8b 3d c0 9a ab 3d 0f aa 1f bc d0 9b b9 bd
       0.068031535 0.083791256 -0.009745135 -0.09062922
0001e0 8d 86 83 3d ce ed 5b 3d 51 f3 4c 3d 68 b4 1d 3c
       0.06422148 0.053693585 0.050036732 0.009625532
0001f0 e6 de 1a bd 69 d1 b7 bc cc 4a 32 3e 62 eb 42 bd
       -0.03781023 -0.022438722 0.17411345 -0.04758776
000200 73 39 b0 3d 9e d1 a6 bd a0 80 0c be 45 e2 05 be
       0.086047076 -0.0814545 -0.13720942 -0.13074596
000210 3b fe e2 3c 82 b0 3b bd b0 26 a3 bd 9f 14 04 3d
       0.027709117 -0.045822628 -0.079663634 0.03224623
000220 90 38 38 3d 49 45 b4 bd 15 a6 09 bc 58 c1 63 3c
       0.044975817 -0.088022776 -0.008401413 0.013901077
000230 78 a1 39 bd 93 f3 3b be 7d 36 c2 bd cb a8 ee bd
       -0.045320004 -0.18354635 -0.09483049 -0.116532885
000240 33 ea a1 3d dc b7 93 3d 60 a6 a2 3d 1c 8e 3b 3d
       0.07905998 0.07212803 0.0794189 0.045789823
000250 ea 63 c3 bc 47 ba 68 bd 89 00 cd bd d6 00 86 bb
       -0.023851354 -0.056818273 -0.10009868 -0.004089455
000260 22 aa 10 3e 4c 34 38 bd fe f2 00 3b bf 5c 47 bc
       0.141274 -0.04497175 0.0019676085 -0.0121681085
000270 95 e1 2b 3e d7 1e 82 3c e8 f6 1b be d4 0a 24 be
       0.16785271 0.015883846 -0.15230906 -0.16019756
000280 1f 60 4c 3e fa fb cd bd 3a e5 e6 3c 33 5c d1 bd
       0.19958542 -0.10057826 0.028185476 -0.10222664
000290 85 a4 bf bd 8d 36 ad 3d 35 d2 87 3d 13 34 95 37
       -0.093575515 0.0845767 0.06631891 1.7786433e-05
0002a0 e2 52 3d bd 40 bb d6 bd e1 c4 20 be 87 63 a6 bd
       -0.04622162 -0.10484934 -0.15700103 -0.08124452
0002b0 c0 62 44 3d 50 2d 33 3c 06 73 6d bd 0f 9d 5e 3d
       0.047945738 0.010936096 -0.057971023 0.054349
0002c0 91 65 cd 3d ce 98 d7 3d 38 a2 f6 3c 89 56 bc 3c
       0.10029138 0.10527192 0.030106649 0.022990482
0002d0 a9 82 81 3d a6 ca a4 3d 54 77 a1 bd 93 c9 a0 bd
       0.063237496 0.080464646 -0.07884088 -0.07850947
0002e0 3c ad 23 be db bd b7 3d 95 2f e6 3c bd 53 ed bd
       -0.15984052 0.08971759 0.02809886 -0.115882374
0002f0 cb a7 7b 3d 55 af 1f 3e 0c 8c ca bb 98 b1 c4 3c
       0.061439317 0.15594228 -0.0061812457 0.024010465
000300 6e fd 2c ba 20 d9 2f bd 02 1a a0 bd 62 28 d2 bd
       -0.0006599043 -0.042931676 -0.078174606 -0.10261609
000310 5b 5d c8 bd 30 a0 6a 3d df b6 b4 bd 8c e5 17 be
       -0.09783431 0.057281673 -0.088239424 -0.14833659
000320 f3 9d 17 3d d2 e7 ae 3d 05 1c ca bd 9d d4 d1 bd
       0.037015866 0.0854031 -0.098686256 -0.10245631
000330 d7 bb 70 3d cc 20 23 3d ac e6 6b 3d e8 f4 cf 3c
       0.058772888 0.0398262 0.057593033 0.025385335
000340 59 14 94 bd d2 ba fe bc 4f 3b 79 bd fa 14 9a 3c
       -0.072304435 -0.031094942 -0.060847577 0.01880883
000350 4a 9c 6f 3c 7d 17 fb 3d f3 52 a6 bd 00 eb c2 bc
       0.014624665 0.122603394 -0.0812129 -0.023793697
000360 3f 9d cd 3c a5 09 3d 3c d7 ec 05 3e 55 64 01 bd
       0.025099395 0.011537944 0.13078628 -0.031589825
000370 c3 5c 87 3d 56 8c d7 bd c8 f2 13 be fa 7a 37 3d
       0.0660949 -0.10524814 -0.14448082 0.044795014
000380 37 98 97 bc 99 bf 34 3d 7f 3c 89 3c ed f6 03 bd
       -0.018505199 0.044128034 0.01675248 -0.03221791
000390 5e 7f a8 bc c5 9b e8 bd 57 9c 90 bd 6f af 34 3d
       -0.020568546 -0.11357836 -0.070610695 0.04411262
0003a0 a1 8b 93 bd bd a2 fc bd 33 bc ac 3d 03 c9 b3 bd
       -0.072043665 -0.12335727 0.08434334 -0.08778574
0003b0 4f 9e 85 bd e0 53 2a be 40 ac 29 3d 6b 7b 29 3d
       -0.065243356 -0.16633558 0.041424036 0.041377466
0003c0 4f 25 ac bd 9d 87 6b bd 45 27 3e bb 65 24 8d 3d
       -0.084055535 -0.057502378 -0.0029015106 0.06891707
0003d0 9a f6 ab bd e8 d6 2b 3d 3f ad 93 bc 61 d9 d6 bc
       -0.08396645 0.041952997 -0.018026946 -0.026226701
0003e0 1e 52 8a 3d 7d 73 5e 3d 7c df 33 bd 6a c0 8c bd
       0.06753944 0.054309357 -0.043914303 -0.068726376
0003f0 e5 59 b9 bc 48 c1 81 bd 86 41 c7 3d 31 55 a1 bd
       -0.022625873 -0.063356936 0.097292945 -0.07877577

fc2.bias f4 [84]
000000 da 92 8f bd e8 48 3e 3d 3d 80 4b bd ad 05 11 3d
       -0.070104316 0.046456248 -0.049682844 0.035405803
000010 56 e0 3f 3e ab 15 87 3e d8 be a2 3e b4 24 f9 3d
       0.18737921 0.2638372 0.31786227 0.12165204
000020 1e 6f 89 3d 45 0b b4 bd 43 f9 db bd 1e ef 41 3d
       0.06710647 -0.08791212 -0.10740902 0.04734718
000030 7d 22 9c 3d c0 8b dd 3d 72 0e c8 3d cd 1f 05 3d
       0.076237656 0.10817671 0.0976838 0.03250103
000040 bc ef d1 3c 0f ca 5a 3d a3 6a db bc a2 b6 9b bd
       0.02562701 0.053415354 -0.026784247 -0.07603194
000050 30 8f 88 3d 42 40 1b 3e 21 8d 42 3e f5 1a 28 3d
       0.06667936 0.15161231 0.18999149 0.041041333
000060 18 de 3b 3e 4f 6e 0b bd e1 7d ef 3b 36 7d 4d 3a
       0.18346441 -0.034040745 0.007308707 0.0007838787
000070 cc ec af 3d 60 23 10 3e 32 6c 5c 3d e1 5d 9e bd
       0.08590087 0.14075994 0.05381412 -0.0773275
000080 20 f9 43 3e 17 9c b5 3e 88 37 2e 3e c7 3b f9 bd
       0.19138002 0.3547065 0.17013371 -0.12169605
000090 9e 47 7a 3e 90 42 bd bd a4 5e ab 3d 3d 69 4a 3e
       0.24441382 -0.092412114 0.08367661 0.19766708
0000a0 81 8b e9 3e c8 cf 32 3c ef a8 10 3c f0 05 cf bb
       0.45614246 0.010913797 0.008829339 -0.0063178465
0000b0 b1 53 f4 3d 15 a2 2f 3b 52 99 59 3e 98 00 9a 3e
       0.11930025 0.002679949 0.21249893 0.30078578
0000c0 11 85 6d 3d ff c7 98 3c a8 bc af 3c cf 0c 4e bd
       0.05798823 0.018650053 0.021452263 -0.050305184
0000d0 82 99 7a bd 70 8a 60 3e 5a 1d 44 3d 8d 08 6a 3e
       -0.061181553 0.2192781 0.047879554 0.22854824
0000e0 56 6f 0e 3e 4b 93 19 3f 5d 6e 79 bc 35 71 94 bd
       0.13909659 0.59990376 -0.015224067 -0.07248155
0000f0 b6 c6 d6 bc 16 a7 95 3e 1b fd 76 3e 8a 86 7b 3d
       -0.0262178 0.2922904 0.2411999 0.061407603
000100 9c f3 64 3d c7 60 0d 3e 1b 83 99 3e af 76 0a 3d
       0.055896387 0.13806449 0.29982838 0.03380459
000110 4b ea fc bc ad 02 d6 3d 1b bf b5 bc 99 25 09 3e
       -0.030873438 0.10449729 -0.022185853 0.13393249
000120 c7 1f 9f 3d 5b d4 8b 3e d8 23 7c 3e 45 88 97 3e
       0.07769733 0.27310452 0.24623048 0.29596153
000130 b3 15 04 be 12 47 b4 3c 3e cf 76 3e 92 eb 02 3e
       -0.12898903 0.022006545 0.24102494 0.12785175
000140 7b 4a 15 3d 07 48 19 be 58 59 7d 3e ea b7 db bd
       0.036447983 -0.14968883 0.24741113 -0.10728438

fc3.weight f4 [10, 84]
000000 a6 d0 e7 3d 2d c7 74 3d a2 24 cb 3d 25 68 db 3c
       0.113190934 0.05976026 0.099190965 0.026783058
000010 e3 51 fa bd 34 d4 13 3e 5a dc 93 be a8 a0 26 be
       -0.1222265 0.14436418 -0.28879052 -0.16272223
000020 3d 66 03 bd 1b 06 04 3e 37 bd fe bd 4a ea 15 3e
       -0.032079924 0.12892954 -0.124384336 0.14640155
000030 84 0b 2e 3e 39 dd 16 be 8a f6 dd bd ff 22 75 3c
       0.1699658 -0.14732827 -0.10838039 0.014961957
000040 54 ee 40 3e 29 14 78 bd f6 a2 9f 3e 59 07 66 3d
       0.18840915 -0.0605661 0.31179017 0.05615935
000050 bb 95 37 3e c3 c8 9b bb 4a d8 9b 3c 5c 2a 05 bc
       0.17928211 -0.0047541573 0.019024033 -0.008127775
000060 20 bb e6 bd aa 27 20 3d 3a 7b 8b bd a5 d7 20 bd
       -0.1126616 0.039100327 -0.06810613 -0.039268155
000070 18 2b 2c be 9e fb 30 be 8a c5 69 3d bd 1d 22 3e
       -0.16813314 -0.17283484 0.057073154 0.15831657
000080 0e 4e 84 bc 5d ef af 3c f8 69 28 3e 5a b3 33 3e
       -0.0161505 0.021476442 0.16446674 0.17548886
000090 61 85 2a 3e 00 cb 15 bc a4 cf 8b 3d 9c fd 9e 3e
       0.16652443 -0.009142637 0.06826714 0.31052864
0000a0 18 68 6e be 1e 2c 57 3d 34 fd 4e 3d b1 38 9f bd
       -0.23281896 0.052532308 0.050534442 -0.07774485
0000b0 0d 68 c1 3d 12 93 8b 3e 05 89 09 3e c8 a7 1a be
       0.09443674 0.27260643 0.13431175 -0.15103066
0000c0 b2 c6 95 bd be 67 89 3d 63 c8 17 3c b3 9b 19 3e
       -0.07313289 0.067092404 0.0092640845 0.15000801
0000d0 3d 13 4f bc 43 5b 22 3e a2 37 0f 3e a5 de 2d 3e
       -0.012638864 0.15855126 0.13986066 0.16979463
0000e0 e0 5a 4c be 5d 8f 2d be 0a 99 25 bd 53 da d9 bd
       -0.19956541 -0.1694922 -0.040429153 -0.10637345
0000f0 e5 1a 5e bd cb bc 81 be 07 83 96 3e 54 62 6d bc
       -0.054224867 -0.2533935 0.2939684 -0.014488775
000100 92 19 0c be cf 32 8a 3b a9 2b 45 be 4b 18 27 3e
       -0.1368163 0.0042174826 -0.19254936 0.16317861
000110 f2 23 3a 3d fc c9 44 bd 6f bb 19 bd be c5 f4 bd
       0.045444436 -0.04804419 -0.037532266 -0.11951779
000120 fb 44 8e 3e 70 45 8e bd 74 5a 66 be 44 42 2e 3e
       0.27787003 -0.06946838 -0.22495443 0.17017466
000130 95 3e 4f 3e 42 34 0f 3d b2 9d 55 3e 65 7c 57 bd
       0.20238717 0.034961946 0.20860937 -0.052608866
000140 55 3e f5 3b ea 67 3b 3e 98 b2 31 be df c6 21 3e
       0.007484237 0.18301359 -0.17353284 0.1579852
000150 21 95 d8 bd 6b 4d 82 bd dc cb 1a bd 30 40 9a 3d
       -0.10575319 -0.063624226 -0.03779207 0.07531774
000160 dd 22 1a 3d 8b 14 c7 bd ec 82 35 3e 3f ee 8a be
       0.037630904 -0.09720715 0.17725724 -0.27134892
000170 6d 9b 5e 3e 53 41 25 bd 3c 06 85 3e 96 97 d3 3c
       0.21738978 -0.0403455 0.2598132 0.025829118
000180 65 f6 42 be af bb 4f bd 1f 3a 9a bb 4e 14 cd bd
       -0.19039305 -0.0507161 -0.0047066356 -0.100136384
000190 6a 5b 91 3e f5 f8 9b 3d 80 47 e4 bd 01 d6 1d 3d
       0.28390056 0.07615844 -0.1114645 0.03853417
0001a0 cf 34 a2 3e 3a 26 5b 3e 3a da 92 be a2 32 cf bd
       0.31680915 0.21401301 -0.2868212 -0.10117079
0001b0 61 d9 07 3c 36 86 b4 bc d8 61 8e 3e 63 52 d0 3c
       0.008291573 -0.022036653 0.27809024 0.02542991
0001c0 01 d1 02 3d 8a 80 30 bd 8a 18 88 be a2 e1 57 3e
       0.031937603 -0.043091334 -0.26581222 0.21082166
0001d0 14 10 31 be bf ae dd 3d 9a 99 b5 bd 98 c0 86 3d
       -0.1729129 0.10824346 -0.08867188 0.06579703
0001e0 dd 20 24 be 97 85 1e bd 77 c9 d6 3c 29 2e b0 3d
       -0.16028161 -0.03870162 0.026219113 0.08602554
0001f0 5d df be be 34 28 06 be 30 24 97 bd 89 1d 90 bd
       -0.37279788 -0.13101274 -0.07379949 -0.070368834
000200 be 28 b9 be 95 83 74 3e a1 47 b8 bd 62 b0 a3 be
       -0.36163896 0.2387832 -0.08998037 -0.31970507
000210 a1 35 02 3d fc b7 5c 3e fd fc 3c 3d 95 f2 83 bc
       0.031789426 0.2155456 0.046139706 -0.016106883
000220 87 cd 82 3d 75 c3 74 3e 19 d7 13 be 55 10 c8 be
       0.063868575 0.23902686 -0.14437522 -0.3907496
000230 98 75 64 3e 8a f3 4e be 77 8d 96 3d e5 b3 2c bd
       0.22310483 -0.2021009 0.07351201 -0.04216375
000240 57 67 1c 3e 3b 69 1f be 86 0f de bd d3 00 b6 3d
       0.15273796 -0.15567486 -0.108428046 0.08886876
000250 d2 7a b6 bc 58 19 7c 3b c5 b3 89 be e1 b0 22 be
       -0.022275362 0.0038467254 -0.26894966 -0.15887786
000260 90 62 b5 3c ad cb 39 be 11 5f 58 3d ac 1f 11 be
       0.022141725 -0.18144102 0.052825037 -0.14172238
000270 2a 07 52 3e ad 96 a0 3e ed af 97 3d 1d 34 8a be
       0.20510545 0.31364956 0.07406602 -0.26992884
000280 4d e9 07 3e 0b 0d ca bc 2e 18 7c bd d1 d9 34 be
       0.13272591 -0.024664422 -0.061546497 -0.17661215
000290 99 90 ca 3d d8 18 e8 3d 5a 8e 25 be b3 1e 00 3e
       0.09890861 0.113328636 -0.16167584 0.12511711
0002a0 fc 1d bf bc 64 98 a2 3e b1 36 cc bd 89 0a db bd
       -0.023329727 0.3175689 -0.09971369 -0.10695369
0002b0 af 8d 44 3e 31 96 42 3e 30 b9 c9 bd 5c 65 97 bd
       0.19194673 0.19002606 -0.09849775 -0.0739238
0002c0 5a 39 e4 bd b2 8f ce bd e9 88 63 3e e7 fd 2e b9
       -0.111437514 -0.100860015 0.22220196 -0.00016688519
0002d0 52 16 7a 3e d5 9a 40 3c 7c cf 0d be 30 f6 98 bd
       0.24422577 0.011755665 -0.1384868 -0.074688315
0002e0 4b c6 43 3d 75 e6 65 bc c4 72 1c 3e 21 d9 82 be
       0.04779653 -0.014031996 0.15278155 -0.2555628
0002f0 c4 7d 31 bb cd d3 d8 bd d9 e9 ee 3d 4a 90 ac 3b
       -0.0027083019 -0.10587273 0.11665697 0.005266224
000300 3c 5a 2f be aa 91 fd bc da 7c fd bc b1 f2 a1 bd
       -0.17124265 -0.030953247 -0.030943323 -0.07907618
000310 48 00 6e 3c af 25 17 bd 8c f4 3a 3e 1f 4c 0c bb
       0.014526434 -0.036901172 0.1825735 -0.0021407676
000320 f6 9b 76 3d f1 82 50 be b8 86 cc bd d0 79 81 bd
       0.06020733 -0.2036245 -0.09986633 -0.06322062
000330 5a 32 bf 3d a5 23 27 bc ba 9c ea bd cc bf 6c 3d
       0.09335776 -0.010201369 -0.114556745 0.0578001
000340 00 5e 36 3d e8 d3 4a 3e 0c 34 1f 3d 45 1a 8c bd
       0.04452324 0.19807398 0.038867995 -0.06840948
000350 41 fc db bc 53 fa bb bd 48 d4 a7 3d 43 db 9a 3e
       -0.026853682 -0.09178605 0.08194786 0.30245408
000360 62 9f c9 bc b0 2f 83 3d 50 a9 59 bd d1 51 7e 3e
       -0.024612132 0.0640558 -0.053139985 0.24835898
000370 d3 3c b8 bd 23 8e e2 bd 30 45 30 3e ae 83 dd 3d
       -0.08995976 -0.11062267 0.17213893 0.108161315
000380 22 52 eb bd c8 78 d6 3d 6f 66 1d bd 32 7d 19 bd
       -0.11490275 0.10472256 -0.038427766 -0.03747291
000390 4a eb 79 3b 7d fc 96 bc 86 41 a1 3e db c2 31 3d
       0.0038134628 -0.018430943 0.31495303 0.04339872
0003a0 30 ab 44 3e 3e 4a ca 3d cb bd 52 3c 8d 37 54 3d
       0.19205928 0.09877442 0.012862633 0.05181079
0003b0 8c 94 74 3d 26 01 43 3e 2a 13 f6 bc 5f e9 7b 3e
       0.059711978 0.19043407 -0.030038435 0.24600743
0003c0 36 09 1a 3d 88 ff 04 be 76 f7 ea 3d 7c 91 8c bd
       0.03760644 -0.12988102 0.11472981 -0.068636864
0003d0 81 02 a1 3c 14 eb 2d 3e ab cc fc bd db 87 9b bd
       0.019654514 0.16984206 -0.12343725 -0.07594272
0003e0 f8 3b 78 3b 5a c3 26 ba b8 3e 15 3d 89 98 79 3d
       0.003787754 -0.0006361507 0.036436766 0.060936484
0003f0 18 b4 92 3d 37 75 21 3c b9 ad 10 3d ba 8c 03 be
       0.071632564 0.009854606 0.035321925 -0.12846652

fc3.bias f4 [10]
000000 0b ca 19 be 70 c3 1b bf 4d 81 b0 bd 5e e1 85 3e
       -0.1501848 -0.6084509 -0.08618412 0.26148504
000010 d0 98 1a 3f 5e 7a b6 bd a6 81 20 3e 37 28 88 be
       0.60389423 -0.089100584 0.15674457 -0.26593181
000020 f1 c4 ec 3e 22 33 28 be
       0.46244004 -0.16425756
